mysite/data.pth (torch, 6615 bytes, 6 tensors)

l1.weight f4 [8, 78]
0	0xbe165887	-0.14682208
1	0x3d698fe4	0.05702199
2	0x3f1be925	0.60902625
3	0x3e85f3bc	0.26162517
4	0x3f083a6b	0.5321414
5	0x3e0d3475	0.13789542
6	0x3f220703	0.6329195
7	0x3f847bad	1.0350243
8	0x3ca29a75	0.019849041
9	0xbeba63af	-0.36404178
10	0x3e382ab1	0.17985035
11	0x3bd3a258	0.006458562
12	0x3f7a7837	0.97839683
13	0x3d4bdec5	0.049772996
14	0x3ee24b9d	0.44198313
15	0xbee108d3	-0.43952045
16	0x3f7084f5	0.93952876
17	0x3f4b7e6d	0.79489785
18	0x3f11eab2	0.5699874
19	0x3ee50823	0.4473277
20	0x3ecb0475	0.39651838
21	0x3c241edd	0.010017124
22	0x3f1c67fb	0.6109616
23	0x3e15ab18	0.14616048
24	0xbee68e3a	-0.45030385
25	0xbee72206	-0.45143145
26	0xbee671bf	-0.45008656
27	0x3cf01deb	0.029311141
28	0x3f1cc117	0.6123213
29	0xbe3235d6	-0.1740335
30	0x3f20658d	0.62654954
31	0x3e9098cd	0.28241578
32	0x3e977f0f	0.29589126
33	0x3de5208f	0.11187851
34	0xbe72d40d	-0.23713703
35	0x3e81a2b8	0.25319457
36	0xba4af969	-0.00077428535
37	0x3f318f70	0.69359493
38	0x3d85fda4	0.06542519
39	0xbd1626d3	-0.03665812
40	0xbe5abd80	-0.21361351
41	0x3ee014e9	0.43765953
42	0x3f345cd9	0.70454174
43	0x3f2ffe5e	0.6874751
44	0x3e97a405	0.29617324
45	0x3ec63e19	0.38719252
46	0x3f1a1534	0.60188603
47	0x3f3db84c	0.7410934
48	0x3f1df6b1	0.61704546
49	0x3f478f35	0.7795289
50	0x3ea79058	0.32727313
51	0x3f7272fe	0.94706714
52	0xbd043585	-0.032277603
53	0x3ebc612f	0.36792895
54	0x3ef6b8cd	0.48187867
55	0x3ec4f389	0.38467053
56	0xbfa07764	-1.2536435
57	0x3cfa082b	0.030521473
58	0xbdb84dbf	-0.08999204
59	0x3f91063e	1.133003
60	0x3ecdb065	0.4017364
61	0x3edb5a75	0.4284245
62	0xba3be43d	-0.0007167494
63	0x3eddfb33	0.43355712
64	0x3eaf846a	0.3428071
65	0x3db86d02	0.090051666
66	0x3d05e8d1	0.032692734
67	0xbee6895a	-0.45026666
68	0xbd1aae39	-0.037763808
69	0xbdb2b93c	-0.08726737
70	0xbdbd6765	-0.092482366
71	0xbee108ca	-0.43952018
72	0xbf06eebd	-0.52708036
73	0xbf342495	-0.7036832
74	0x3ea6e755	0.32598367
75	0x3ec390be	0.38196367
76	0x3f4a8067	0.79102176
77	0x3b7f0b48	0.0038916636
78	0x3f5247aa	0.821406
79	0x3f710dd3	0.9416172
80	0xbf0f548c	-0.55988383
81	0xbf3e0832	-0.74231255
82	0xbf29408b	-0.6611411
83	0xbe2821af	-0.164191
84	0xbe8377f5	-0.25677457
85	0x3e7b8fdf	0.24566601
86	0x3f1fa879	0.62366444
87	0x3e09dee5	0.13463934
88	0x3c4e5358	0.012593113
89	0xbea33471	-0.31875947
90	0xbf254cdc	-0.64570403
91	0x3f359c62	0.70941746
92	0x3f8afc0b	1.0858167
93	0x3f592680	0.8482437
94	0x3f254106	0.6455234
95	0x3f17d557	0.59309906
96	0xba9395bf	-0.0011259838
97	0x3e721325	0.23640116
98	0x3e1bc2f1	0.15211083
99	0xbe95724b	-0.2918876
100	0xbdbee224	-0.09320477
101	0x3eb066ae	0.34453338
102	0x3dcc4d4e	0.09975682
103	0x3de44129	0.11145241
104	0x3db6aec1	0.089200504
105	0xbec27797	-0.37981865
106	0xbea84e53	-0.32872257
107	0xbed5b38f	-0.41738555
108	0xbebfece4	-0.3748542
109	0xbd7862da	-0.060641147
110	0x3e602161	0.21887733
111	0x3ec8e046	0.39233607
112	0x3f0c10e3	0.5471327
113	0x3ece820f	0.40333602
114	0x3f823a2c	1.0174003
115	0xbe959d04	-0.29221356
116	0x3f17e90c	0.59339976
117	0xbea29972	-0.31757694
118	0x3f109711	0.5648051
119	0x3efa47d1	0.48882917
120	0xbd54b91f	-0.051934358
121	0xbe8ddf34	-0.27709353
122	0x3d98e827	0.074661545
123	0x3e91d4e3	0.28482732
124	0xbdd72836	-0.105057165
125	0xbe8f7aed	-0.28023472
126	0xbebd9223	-0.37025556
127	0xbf721cae	-0.9457501
128	0xbdf417ce	-0.11918603
129	0xbf80e896	-1.007098
130	0x3f45552c	0.77083087
131	0x3eda7a89	0.42671612
132	0x3ca4b471	0.020105572
133	0xbd9ebc9e	-0.077508196
134	0x3f939d06	1.1532295
135	0xbe70a406	-0.2350007
136	0xbe4698ae	-0.1939418
137	0x3e5d0961	0.21585609
138	0x3f40269f	0.7505893
139	0x3e87b960	0.26508617
140	0xbe8ecd06	-0.27890795
141	0x3ecec341	0.40383342
142	0x3dbf4b9e	0.09340595
143	0xbe822749	-0.25420597
144	0xbe92365e	-0.28557104
145	0x3f317320	0.6931629
146	0xbea84c83	-0.32870874
147	0xbf0e2249	-0.55521065
148	0xbea9632d	-0.33083478
149	0x3f525954	0.82167554
150	0x3f0996c5	0.5374568
151	0x3baedaed	0.0053361566
152	0x3d9061f7	0.07049935
153	0x3b0d0a5d	0.002152107
154	0xbf5be946	-0.8590282
155	0x3e729faa	0.2369372
156	0x3daa70ab	0.08322271
157	0x3b5d6999	0.0033784865
158	0x3f3ab51f	0.7293262
159	0x3f438b99	0.76384884
160	0x3f3026ff	0.68809503
161	0xbdae6fd0	-0.0851742
162	0x3e9d1807	0.30682394
163	0xbebb307d	-0.3656043
164	0xbe0cf565	-0.13765486
165	0x3e1547c3	0.14578156
166	0xbdbfe522	-0.093698755
167	0x3f12174c	0.570668
168	0xbe573659	-0.21016826
169	0xbe5a6ea2	-0.21331266
170	0xbf30e055	-0.69092304
171	0x3e214e33	0.15752487
172	0xbf27c73f	-0.655384
173	0xbf284792	-0.6573421
174	0xbd02f939	-0.03197596
175	0x3eadba79	0.3393133
176	0xbdff4536	-0.12464373
177	0x3e17b157	0.14813744
178	0xbf097552	-0.5369464
179	0xbe8c384d	-0.27386704
180	0x3f3dbc0b	0.74115056
181	0x3f614d81	0.88008887
182	0x3f45456f	0.7705907
183	0x3d330f64	0.04371585
184	0x3e9a89d1	0.3018327
185	0x3e76148c	0.24031276
186	0x3eab6c36	0.33480996
187	0x3d474fd6	0.04866012
188	0xbdc3b5b6	-0.09556143
189	0xbeeda520	-0.46415043
190	0x3d01e71b	0.03171454
191	0xbe35c6a5	-0.17751558
192	0xbdc1a54c	-0.09455356
193	0x3edf265e	0.4358396
194	0x3decf8b0	0.11570871
195	0x3f130342	0.57426846
196	0x3d56b929	0.052422676
197	0x3eadc13c	0.3393649
198	0xbe2bb8b0	-0.16769671
199	0x3eab7d05	0.3349382
200	0xbe27635c	-0.16346496
201	0xbea43178	-0.32068992
202	0xbf04c67b	-0.5186536
203	0x3f030c7e	0.51190937
204	0x3ef6f8b8	0.48236632
205	0x3f086fff	0.5329589
206	0xbe0e71d5	-0.13910611
207	0x3f2a95cd	0.6663483
208	0xbeaa9dfd	-0.3332366
209	0x3eb578e0	0.35443783
210	0x3cc8c4a6	0.024507832
211	0x3eb8a12e	0.3606047
212	0x3f68b3ad	0.90899163
213	0x3e18eec6	0.14934835
214	0x3ef1a251	0.4719415
215	0xbebbc888	-0.3667643
216	0xbf1fc6ba	-0.6241261
217	0xbe4b1384	-0.19831663
218	0x3f0b77ee	0.54479873
219	0xbe0b1d7c	-0.13585466
220	0xbe116e7f	-0.14202307
221	0x3ebc8519	0.36820295
222	0x3f11ed70	0.57002926
223	0xbde5aaaf	-0.11214196
224	0x3e04cb25	0.12968118
225	0x3e1a266b	0.15053718
226	0x3e2cc1a0	0.16870737
227	0xbf566059	-0.83740765
228	0xbea0a5d7	-0.31376526
229	0xbf6e37cd	-0.93053895
230	0xbe23864f	-0.15969203
231	0xbf2cbc00	-0.67474365
232	0x3f1c192b	0.60975903
233	0x3e410876	0.18850884
234	0x3e91176f	0.2833819
235	0x3eceb719	0.40374067
236	0x3eed194b	0.4630836
237	0xbeb145e2	-0.3462363
238	0xbf1aeb29	-0.60515076
239	0xbde84135	-0.11340562
240	0x3d678249	0.056520734
241	0x3e17f8f9	0.1484107
242	0x3e51a492	0.20472935
243	0xbf0b6da5	-0.5446418
244	0x3f06748c	0.52521586
245	0xbea7e5e7	-0.3279259
246	0xbdb97c1b	-0.09056874
247	0x3e794458	0.24342477
248	0xbf8dd880	-1.1081696
249	0x3ea23e65	0.31688228
250	0xbf200d62	-0.6252042
251	0xbf2a7fb5	-0.66601115
252	0xbeaf2ac3	-0.34212312
253	0xbdebb109	-0.11508376
254	0x3f13d2ea	0.57743704
255	0xbc43a446	-0.011941021

l1.bias f4 [8]
0	0x3ee523e1	0.44753936
1	0x3f58559d	0.84505635
2	0x3f274271	0.65335757
3	0x3f299a0f	0.662507
4	0x3f25a34a	0.64702284
5	0x3f70693c	0.93910575
6	0x3f9aa67b	1.2082056
7	0x3f3d9274	0.74051595

l2.weight f4 [8, 8]
0	0x3f0c14e6	0.5471939
1	0xbf87eb26	-1.0618637
2	0x3f8c1aba	1.0945656
3	0xbf58578d	-0.8450859
4	0x3e8624f9	0.26200083
5	0x3f4d8073	0.8027412
6	0x3ea8a665	0.3293945
7	0x3f62f630	0.886569
8	0x3fb58fff	1.4184569
9	0xbeb79bf9	-0.35861185
10	0xbe3c365d	-0.18380113
11	0x3f2cf0e3	0.67555064
12	0xbf737dd9	-0.95113903
13	0x3e847c64	0.25876153
14	0x3e8458d9	0.25849035
15	0x3f9a63f8	1.2061758
16	0x3f0949b3	0.5362808
17	0xbf2bfd00	-0.6718292
18	0x3f1a64ee	0.60310256
19	0x3f09ea16	0.5387281
20	0x3f7f2562	0.99666417
21	0xbf45f2d4	-0.7732365
22	0x3fa5b5b0	1.2946072
23	0x3f333729	0.7000604
24	0x3ee7dec6	0.4528715
25	0xbf84461b	-1.0333894
26	0x3f8baf06	1.0912788
27	0x3fb18226	1.3867843
28	0x3e2a0cd2	0.16606453
29	0x3fe1fe12	1.7655661
30	0xbf3e81df	-0.7441692
31	0x3f862f5c	1.0483203
32	0xbefe1604	-0.49626172
33	0x3f3c8dfa	0.7365414
34	0xbe2b3512	-0.16719463
35	0x3fbe7857	1.4880475
36	0x3f7028eb	0.93812436
37	0x3fb45aeb	1.4090246
38	0xbf03351d	-0.5125292
39	0xbeb09df7	-0.34495518
40	0x3f7f8b68	0.9982209
41	0x3fa158cf	1.2605227
42	0xbf8d760c	-1.105165
43	0xbf24a9cb	-0.64321584
44	0xbf78ebd0	-0.9723482
45	0x3ef52e42	0.47886854
46	0x3f9a32d8	1.2046766
47	0x3f82d221	1.0220376
48	0xbf29c44b	-0.66315144
49	0xbe1a7f73	-0.1508768
50	0x3f95bab7	1.1697606
51	0xbe25eb38	-0.1620301
52	0x3fcb4fb9	1.5883704
53	0x3f8822a4	1.0635571
54	0x3f8d08c4	1.10183
55	0x3beda785	0.007252636
56	0xbf0aa615	-0.5415967
57	0x3f9f4e7f	1.244583
58	0x3f25a22f	0.647006
59	0x3f947f90	1.1601429
60	0x3e28d0ac	0.16485852
61	0xbf6368fd	-0.88832074
62	0x3fc0eea4	1.5072827
63	0x3f0b66eb	0.54453915

l2.bias f4 [8]
0	0x3d80d080	0.06289768
1	0x3e47e69d	0.19521566
2	0x3dc67c67	0.096916966
3	0x3f0907fa	0.53527796
4	0x3f5fd088	0.8742757
5	0x3f3ea847	0.7447552
6	0x3f16746f	0.58771414
7	0x3ef85a9c	0.4850663

l3.weight f4 [13, 8]
0	0xbfa2ae78	-1.2709494
1	0xbfef3043	-1.8686603
2	0xc00c4f9a	-2.1923585
3	0xbf933082	-1.1499178
4	0x3f38ab22	0.7213613
5	0xbefc8574	-0.49320567
6	0x3e908b34	0.28231204
7	0x3f04d4f1	0.5188742
8	0x3f1e0597	0.6172728
9	0xbfc783a6	-1.5587051
10	0x3f12f63b	0.5740697
11	0xbf95c688	-1.1701212
12	0xbfa622fe	-1.2979429
13	0xbf444844	-0.7667277
14	0x3eba4d7c	0.3638724
15	0x3d57c1ef	0.052675184
16	0xc008c4c1	-2.137009
17	0xbf93b741	-1.15403
18	0x3e325b51	0.17417647
19	0xbfe06121	-1.7529641
20	0xbf4bf9ea	-0.79678214
21	0x3e7669cc	0.24063796
22	0x3ee6cab9	0.4507654
23	0x3f286b96	0.65789163
24	0xbf29f84d	-0.663945
25	0x3f20514b	0.62624043
26	0x3de337e9	0.110946484
27	0xbfd0294b	-1.6262602
28	0xbf9c2bc5	-1.2200857
29	0x3f16d581	0.5891953
30	0xbf094978	-0.5362773
31	0x3f092d9a	0.5358521
32	0x3f8cad9f	1.0990485
33	0xbf15641f	-0.583559
34	0xbf0ce794	-0.5504086
35	0x3e845b3d	0.2585086
36	0xbeb643ba	-0.35598546
37	0xbf5b92c9	-0.8577085
38	0x3f179971	0.5921851
39	0xbfe69268	-1.801343
40	0xbeb81058	-0.3594997
41	0xbfd786ea	-1.6838048
42	0xc0038367	-2.0548952
43	0x3ee22877	0.44171497
44	0x3f81fe70	1.0155773
45	0xbf267208	-0.6501775
46	0x3e9f136e	0.3106951
47	0xbfcf3db2	-1.6190703
48	0x3e15b784	0.14620787
49	0x3e116e0c	0.14202136
50	0xbfc3041e	-1.5235631
51	0x3ee528ec	0.44757783
52	0x3da7c263	0.08191373
53	0x3ed3f601	0.41398624
54	0xbec52672	-0.38505894
55	0xbfd69209	-1.6763316
56	0xbfd0a277	-1.629958
57	0x3f379ff1	0.71728426
58	0x3f092a3d	0.53580076
59	0x3ef645c3	0.481001
60	0xbf525a1f	-0.82168764
61	0xbe415b9b	-0.18882601
62	0xbfd15369	-1.635358
63	0x3d235855	0.039879162
64	0xc00aa04f	-2.1660345
65	0x3ebb79af	0.36616275
66	0xc02362fb	-2.5529163
67	0x3f0eb142	0.55739224
68	0x3e737a39	0.23777093
69	0xbe9180d6	-0.28418607
70	0xbd73a20a	-0.059480704
71	0xbc24bb3e	-0.010054408
72	0xbf6c3c7b	-0.92279786
73	0xbfa90e69	-1.3207523
74	0xbfc09c12	-1.5047629
75	0xbf547a8e	-0.82999504
76	0x3e31c22c	0.17359227
77	0x3f4bb0eb	0.7956683
78	0xbfc51fa5	-1.5400282
79	0x3f000abd	0.50016385
80	0xbc60c978	-0.013719909
81	0xbea38897	-0.31940147
82	0x3dc417a9	0.09574825
83	0xbe0dbf4c	-0.13842505
84	0x3da06f10	0.078336835
85	0x3e41a3f4	0.189102
86	0x3d611402	0.05495072
87	0xbea29513	-0.3175436
88	0x3f3c7a70	0.73624325
89	0x3eadda91	0.33955815
90	0x3ef722e9	0.48268822
91	0x3ead1dc9	0.33811787
92	0xbff27b5d	-1.8943897
93	0xbd4b9cc6	-0.049710058
94	0xbf8adf62	-1.0849421
95	0xbe982b35	-0.29720464
96	0xbf4318f3	-0.76209944
97	0xbfc0f4a8	-1.5074663
98	0xbe8fe59b	-0.28104863
99	0x3e3b9a7e	0.18320653
100	0x3ed5365c	0.41643035
101	0xc010cd8c	-2.2625456
102	0x3ee52444	0.4475423
103	0x3e59d88f	0.21274017

l3.bias f4 [13]
0	0x3d03b150	0.03215152
1	0xbe2c8101	-0.16846086
2	0x3d2fca45	0.04291751
3	0x3e218ece	0.15777132
4	0x3d214a4b	0.039377492
5	0x3ea945c9	0.33061054
6	0x3e845a1e	0.25850004
7	0xbef8c528	-0.48587918
8	0xbe8d439e	-0.2759065
9	0x3f11dad1	0.5697451
10	0xbe672a5b	-0.22574751
11	0xbdd824ed	-0.10553918
12	0xbde795f5	-0.11307899
